last_brain.pth (torch, 6721 bytes, 12 tensors)

fc1.weight f4 [30, 5]
000000 2a c0 34 3e c4 ac 47 be b6 40 77 3d ee 69 cc be
       0.1765143 -0.19499499 0.060364448 -0.39924568
000010 b4 fe 3a be 77 ef 69 3d d8 0f fb 3e f0 00 f5 3e
       -0.18261224 0.057113137 0.49035525 0.47852278
000020 6d 96 72 3e da 2d 97 3e 71 fc f9 bd 37 3d f3 3e
       0.23690195 0.2952717 -0.122063525 0.4750764
000030 c2 5b 9c 3e b2 1d 05 bf 13 66 3c be 1e bc 62 be
       0.30538756 -0.51998436 -0.18398313 -0.22142074
000040 4a 08 a4 be 10 4e 11 bd 64 fc c5 bc 0b 91 60 bd
       -0.32037574 -0.035474837 -0.0241682 -0.054825824
000050 93 76 3b 3d 8a 9a ee 3e 57 e8 06 3e 0b 36 0d 3f
       0.045767378 0.4660228 0.13174568 0.5516059
000060 b3 2b 6f be 67 02 02 3f a5 1e 50 bf 2b 3a b9 3d
       -0.23356514 0.50784916 -0.8129676 0.09044298
000070 49 45 0e be 5b 2e 23 3e 81 d5 55 3e fd 5c 97 3e
       -0.13893618 0.15935652 0.20882227 0.29563132
000080 0b bf 28 3e c4 32 45 3e cc 68 20 bf 12 7b d6 3e
       0.16479127 0.19257647 -0.6265991 0.4189077
000090 48 de 4b bf 34 08 88 3e 12 55 ed 3e 95 4b 26 3d
       -0.7963605 0.26568758 0.46353966 0.040599424
0000a0 a3 04 9f be 1d 02 55 bf 7c a6 cf bf d4 f5 07 3f
       -0.31058225 -0.8320635 -1.6222682 0.5310948
0000b0 bf 9c 02 bf 85 52 2f c0 f8 29 a0 bf 5b 52 98 bf
       -0.51020426 -2.7394116 -1.2512808 -1.1900133
0000c0 8d b6 8d 3e 3c b4 7e be 6c 29 13 3e 9b 1c b3 3e
       0.27678338 -0.24873441 0.1437127 0.34982762
0000d0 55 8f 1a 3e da df 76 bf 71 f2 4e 3f a8 02 b6 be
       0.1509374 -0.9643532 0.80838686 -0.35548902
0000e0 ca b4 ca be 85 47 af 3e 29 4e 5a be d9 ef 00 bf
       -0.39591056 0.34234253 -0.21318878 -0.5036598
0000f0 04 97 b0 3e 48 f5 42 3f b6 dc b4 be 38 15 d2 be
       0.34490216 0.7615552 -0.3532464 -0.41031814
000100 d4 b4 03 3f 46 de d5 be 7f 37 93 be e8 20 20 3f
       0.51447797 -0.41771144 -0.28753278 0.6255021
000110 99 cf 98 3f 3e 33 82 bf a0 d1 e0 be 35 ad 65 3d
       1.1938354 -1.0171888 -0.4390993 0.056073386
000120 e2 74 f8 bc df a9 66 3f 0b 70 3f bf b4 4a c5 3e
       -0.030329172 0.9010295 -0.7478034 0.38533556
000130 44 f4 21 be 74 52 1d 3f cb f9 47 3f 15 00 3b bf
       -0.15815836 0.6145394 0.7811553 -0.73047
000140 62 7f 38 3f f0 1c 2d 3e 2d 8e aa be bc d4 a1 be
       0.7206937 0.1690557 -0.33311597 -0.31607616
000150 1a 99 e4 3e 00 4b 44 3d 7a 0d 8c be 10 44 53 bd
       0.44648057 0.047923088 -0.27354032 -0.05157858
000160 b6 f3 84 3e ac 45 a5 3e 03 c2 9c 3e b7 aa 76 be
       0.25967187 0.32279718 0.3061677 -0.2408856
000170 48 32 1e 3d 06 0e dc be b8 09 e8 3e c0 79 5b 3f
       0.03862217 -0.4297945 0.45319915 0.8573265
000180 e3 2e e4 bd d6 8d 2d be e8 4a a3 3f bd 8a 24 bf
       -0.111417554 -0.16948637 1.2757235 -0.642742
000190 72 a8 29 3e ea a0 59 bd 10 90 3c 3f 35 fa 06 3f
       0.16568163 -0.053131975 0.7365732 0.52725536
0001a0 14 b2 67 bf a2 91 04 be 4e d8 0d 3e 92 99 2f bd
       -0.905061 -0.1294618 0.13852045 -0.042871065
0001b0 94 15 5d bf 9e 38 1f 3f b5 32 8e 3e 2f 04 36 3e
       -0.8636105 0.62195766 0.2777306 0.17775033
0001c0 fc fe 0c 3e 06 71 56 bf 36 3a 21 3f 47 90 1c bf
       0.13769144 -0.8376621 0.6297945 -0.6115765
0001d0 2c 93 12 3f e7 87 c2 3e c9 26 06 3f bf 80 88 bc
       0.57255816 0.3799431 0.5240293 -0.016662953
0001e0 f9 fb 51 be 3c 6f 3f be e9 52 25 3f af ec 0e bf
       -0.20506276 -0.18694776 0.64579636 -0.558299
0001f0 04 54 f3 bd 73 b0 39 bf 67 9b 32 bf d3 c6 18 3f
       -0.11881259 -0.72534865 -0.69768375 0.5967838
000200 c4 c0 a4 3f 82 9c 2d bf 6a 94 9a be 9b dc aa be
       1.2871327 -0.67816937 -0.30191356 -0.33371434
000210 b0 eb cb be f5 25 18 be 71 22 8c 3e 47 ae 59 bf
       -0.39828253 -0.1485823 0.27370027 -0.8503155
000220 86 b0 b4 3d c7 be 4c c0 23 7a 38 3e 3b 69 20 bf
       0.08822732 -3.1991441 0.18015341 -0.6266057
000230 36 fc 12 3f 7c 6d 1d 3f 12 9b e0 3e 40 58 f1 3d
       0.57416093 0.61495185 0.4386831 0.117844105
000240 83 cc a0 be 65 d0 c9 3e a0 1b 08 bc e8 24 26 bd
       -0.3140603 0.39416805 -0.008307368 -0.04056254
000250 d1 b6 a3 be 85 1b 9d be
       -0.31975415 -0.30685058

fc1.bias f4 [30]
000000 6d d1 c1 3e 46 07 0b 3e 37 3d 20 3e e6 df 2a bd
       0.37855092 0.13576993 0.15648352 -0.041717432
000010 33 14 49 bf c5 b0 50 bf 1b e4 51 bf 21 30 d9 3e
       -0.78546447 -0.8151973 -0.81988686 0.42419532
000020 20 3d d4 3e 2a 91 44 3f 24 95 f5 3d 50 c5 11 3f
       0.41452885 0.76784 0.11991337 0.569417
000030 f5 0f 0f bf 66 55 25 bf 32 2e 13 bf 3a f1 11 3f
       -0.55883723 -0.6458343 -0.57492363 0.5700871
000040 a6 66 3a bf d2 a3 83 be 3b d6 97 bd f2 ea 10 be
       -0.7281288 -0.25710922 -0.07413908 -0.14152125
000050 16 0d bd 3e 8e 69 af 3e 5b 8f 1a bf a8 fb 95 3e
       0.36924046 0.3426022 -0.60374993 0.2929356
000060 c1 0e f5 3e d6 58 fd 3d d6 09 e2 be f6 dc 40 3f
       0.4786282 0.1237046 -0.4414813 0.7533716
000070 ab db 95 3e 8b 6a e2 be
       0.29269156 -0.4422191

fc2.weight f4 [3, 30]
000000 41 cd 21 3e 89 41 c4 be 73 4d 0d be 54 14 34 be
       0.15800954 -0.3833125 -0.13799076 -0.1758588
000010 b5 d5 f6 be ec 59 82 3f e4 20 ac be 0c 61 04 be
       -0.4820992 1.0183692 -0.33618844 -0.12927645
000020 29 c6 18 be 8d a2 04 3e 4b 5d af be 21 aa bb 3e
       -0.14919342 0.12952633 -0.34250864 0.36653236
000030 86 7a 39 3d 36 c9 8c bf da dc 32 bf a3 9c de bd
       0.045282863 -1.0998905 -0.6986824 -0.1086972
000040 e0 e5 09 3f fd 7d 36 be a2 a4 5e 3e a6 7c a9 be
       0.53866386 -0.17821498 0.2174249 -0.33102912
000050 a0 b9 00 3d ba 4c d9 be 45 14 6c 3d 14 93 75 be
       0.031427026 -0.4244135 0.057636518 -0.23981887
000060 1e 5a d4 be 45 f2 08 be 5f 40 30 be 7c 22 9f 3f
       -0.41475004 -0.13373668 -0.17212056 1.2432399
000070 02 4b ff bd 34 cb e7 3d d6 4a 41 3e 45 e6 a3 bc
       -0.124654785 0.11318055 0.18876204 -0.020007262
000080 5f 1f 90 bd e9 4f 17 3e f7 76 c3 3e 9a 4d 1f 3f
       -0.070372336 0.14776577 0.381767 0.62227786
000090 6f e6 06 3e 9e 71 ec 3d 4c d8 9b bf 97 5e 71 3f
       0.13173841 0.11545108 -1.2175384 0.9428496
0000a0 6d 5b 4f be 65 4f 98 3e 1d 4e 2f bf c8 b0 b6 bf
       -0.2024972 0.29748073 -0.68478566 -1.4272699
0000b0 90 8c e8 be 4b ea 27 bf 8a fe 61 bc c0 d9 41 bb
       -0.4541974 -0.6559188 -0.013793597 -0.0029579252
0000c0 a9 5e 29 bd ff 41 83 bf da 64 07 3d 97 c8 dd be
       -0.04135004 -1.0254515 0.033055164 -0.433171
0000d0 5c 48 aa be 6e 7b b9 3d 31 6d 4b bd 0b a2 a5 3f
       -0.3325833 0.090567455 -0.04966468 1.2940077
0000e0 ed 23 0b 3e 9c c3 0e 3f c9 00 74 be fe 8e a1 bc
       0.13587923 0.55767226 -0.23828425 -0.019721504
0000f0 32 f1 92 3e 7f 88 f1 bd 82 bf c7 be d0 94 15 3e
       0.28699642 -0.11793613 -0.39013296 0.14607549
000100 0d 83 65 bf 49 62 77 bd 6a ec 84 bf cb e9 33 bf
       -0.8965309 -0.060396466 -1.0384648 -0.70278615
000110 61 8c 5a be 5a b3 14 3f 02 1f d3 bc 22 01 03 3f
       -0.21342613 0.5808617 -0.025771622 0.51173604
000120 74 52 fe be 10 0a 5a bf 5e 05 cf bf df cb 54 be
       -0.49672282 -0.85171604 -1.6173513 -0.20780896
000130 7a 55 7f 3f 94 91 f8 3d b1 ff 5c be 66 34 5e 3f
       0.997398 0.12137142 -0.21581914 0.86798704
000140 e0 ed 26 bf d7 b9 e3 be 26 08 ef be 17 ef 02 be
       -0.6520672 -0.44477722 -0.46685904 -0.12786518
000150 3f 06 e1 bd ae 2f 33 be 74 50 b5 3d 40 3c 92 3f
       -0.109875195 -0.17498657 0.08853236 1.1424637
000160 5e 26 87 3e 3c ca 31 bd
       0.2639646 -0.043405756

fc2.bias f4 [3]
000000 36 db 46 3e ec 75 1a 3e c0 33 f6 bd
       0.1941956 0.15084046 -0.12021589

exp_avg f4 [30, 5]
000000 76 83 35 b9 b2 b8 36 ba 06 05 52 ba f7 2a b7 b9
       -0.00017310478 -0.0006970271 -0.0008011613 -0.0003493649
000010 f7 2a b7 39 62 53 92 b9 30 09 39 38 48 92 f4 38
       0.0003493649 -0.00027909415 4.4115994e-05 0.00011662074
000020 48 d5 36 39 48 d5 36 b9 3c 15 ed 38 08 a5 f6 39
       0.00017436326 -0.00017436326 0.00011304996 0.00047043734
000030 da 75 26 3a 8b af b9 38 8b af b9 b8 00 00 00 00
       0.0006349959 8.854185e-05 -8.854185e-05 0.0
000040 00 00 00 00 00 00 00 00 04 00 00 00 04 00 00 80
       0.0 0.0 6e-45 -6e-45
000050 c5 63 a7 b9 3c b3 ac b9 1e 72 8a 3a 6b a2 c3 b8
       -0.00031927056 -0.00032939937 0.0010562574 -9.328577e-05
000060 6b a2 c3 38 d8 b3 1f 07 04 00 00 80 d8 b3 1f 07
       9.328577e-05 1.2014682e-34 -6e-45 1.2014682e-34
000070 47 de 1c 87 47 de 1c 07 d0 14 f0 b8 dc 05 df b9
       -1.1801457e-34 1.1801457e-34 -0.000114479684 -0.0004253824
000080 c4 30 96 3a f4 34 65 b9 f4 34 65 39 28 8b eb 38
       0.0011458625 -0.00021858868 0.00021858868 0.00011231593
000090 e0 fe 8d b8 22 96 1a 3a 13 14 20 3a 13 14 20 ba
       -6.770878e-05 0.00058970053 0.0006106507 -0.0006106507
0000a0 b8 f3 44 b8 83 6b 87 b9 80 db 32 3a 9c 85 25 3a
       -4.6957022e-05 -0.0002582931 0.0006822869 0.000631416
0000b0 9c 85 25 ba 56 15 5d 38 49 bc 99 39 f2 1b c6 b9
       -0.000631416 5.2710377e-05 0.00029322717 -0.00037786324
0000c0 13 0e 8d ba 13 0e 8d 3a 35 7e 8d 39 22 e8 c7 39
       -0.0010761641 0.0010761641 0.00026987647 0.0003812919
0000d0 02 f1 86 39 97 4c bb b7 97 4c bb 37 67 15 38 ba
       0.00025738036 -2.2327802e-05 2.2327802e-05 -0.0007022232
0000e0 52 2e d6 ba 27 fd af ba 2c 8d 51 ba 2c 8d 51 3a
       -0.0016340709 -0.0013426886 -0.00079937535 0.00079937535
0000f0 3e 5f b6 39 49 a1 cd 3a 92 02 61 3a b8 6a 79 b9
       0.00034784706 0.0015688326 0.0008583452 -0.00023786246
000100 b8 6a 79 39 ac d3 ed 39 80 41 56 b6 69 5a f3 3a
       0.00023786246 0.0004536187 -3.192661e-06 0.0018566373
000110 4d 90 a0 3a 4d 90 a0 ba 7a 48 ce ba 48 4e 92 38
       0.0012250036 -0.0012250036 -0.0015738152 6.9764035e-05
000120 99 f5 90 ba 07 19 33 3a 07 19 33 ba 90 2b 2d 3a
       -0.0011059522 0.00068320375 -0.00068320375 0.00066059176
000130 23 0d 01 3b 76 95 fa 3a ef 07 f4 39 ef 07 f4 b9
       0.0019691668 0.0019118029 0.00046545218 -0.00046545218
000140 92 2c 4f 39 66 36 57 39 91 54 1e 38 2e 16 b0 b8
       0.00019757662 0.00020524263 3.7748894e-05 -8.396465e-05
000150 2e 16 b0 38 00 00 00 00 00 00 00 00 00 00 00 00
       8.396465e-05 0.0 0.0 0.0
000160 00 00 00 00 00 00 00 00 7f 73 0c 35 85 58 33 b8
       0.0 0.0 5.2322133e-07 -4.2759366e-05
000170 41 ec 35 39 28 27 d1 36 28 27 d1 b6 24 cb c3 39
       0.00017349517 6.2332438e-06 -6.2332438e-06 0.0003734465
000180 4e f5 f5 3a 8b b4 6f 3a 98 74 45 b9 98 74 45 39
       0.0018765123 0.00091440295 -0.00018830819 0.00018830819
000190 7e 46 9a 39 a2 02 e2 39 bc 34 41 3a ee 5b 20 3a
       0.0002942569 0.0004310804 0.0007370224 0.0006117214
0001a0 ee 5b 20 ba aa e0 b6 39 7a 41 66 3a b5 f4 53 3a
       -0.0006117214 0.00034881133 0.00087835605 0.00080854754
0001b0 d8 1d 43 38 d8 1d 43 b8 e0 da ad b7 be 31 80 b7
       4.6519417e-05 -4.6519417e-05 -2.0725129e-05 -1.5281952e-05
0001c0 63 20 9b b7 2d dc a9 b7 2d dc a9 37 7d fa 86 b9
       -1.8492521e-05 -2.0248897e-05 2.0248897e-05 -0.000257451
0001d0 88 29 63 b9 43 a8 00 b9 3e a7 ff 38 3e a7 ff b8
       -0.00021663879 -0.00012269714 0.00012190499 -0.00012190499
0001e0 11 0c 3f b8 7b 60 1a 3a 7d 1e 33 39 90 d7 ef 39
       -4.5549186e-05 0.00058890105 0.00017082128 0.0004574624
0001f0 90 d7 ef b9 9b be 80 39 61 77 ea 39 23 a0 bb ba
       -0.0004574624 0.00024556075 0.00044720902 -0.0014314692
000200 82 b9 93 b9 82 b9 93 39 00 00 00 00 00 00 00 00
       -0.0002817624 0.0002817624 0.0 0.0
000210 00 00 00 00 04 00 00 80 04 00 00 00 5b ae 0a 3a
       0.0 -6e-45 6e-45 0.0005290263
000220 b0 5d b8 ba 6e f5 dd b8 bc 55 76 b9 bc 55 76 39
       -0.0014066007 -0.00010583816 -0.00023492327 0.00023492327
000230 20 09 19 37 1e 1b e2 39 8c 61 87 39 32 5f 26 b9
       9.121635e-06 0.00043126283 0.00025821885 -0.00015866457
000240 32 5f 26 39 04 00 00 00 04 00 00 00 00 00 00 00
       0.00015866457 6e-45 6e-45 0.0
000250 04 00 00 00 04 00 00 80
       6e-45 -6e-45

exp_avg_sq f4 [30, 5]
000000 f0 7e 03 37 13 a8 99 37 00 cc bc 36 0f 54 ba 36
       7.837763e-06 1.8317287e-05 5.6265853e-06 5.5530177e-06
000010 0f 54 ba 36 64 be 81 36 57 39 56 37 75 78 81 36
       5.5530177e-06 3.866664e-06 1.2768744e-05 3.8585226e-06
000020 c8 15 b4 36 c8 15 b4 36 b2 2c 46 37 82 8b ec 37
       5.3669537e-06 5.3669537e-06 1.1812126e-05 2.8198356e-05
000030 33 9a f4 36 6a 74 af 36 6a 74 af 36 00 00 00 00
       7.289718e-06 5.228959e-06 5.228959e-06 0.0
000040 00 00 00 00 00 00 00 00 51 9e be 27 51 9e be 27
       0.0 0.0 5.290724e-15 5.290724e-15
000050 29 99 23 38 4f c9 47 38 2a bf f5 37 9c 98 7c 37
       3.900487e-05 4.763278e-05 2.9295294e-05 1.5055903e-05
000060 9c 98 7c 37 18 d9 ab 34 35 46 26 32 ab ad c7 34
       1.5055903e-05 3.2009189e-07 9.678435e-09 3.7192999e-07
000070 33 0c 02 34 33 0c 02 34 71 61 29 38 c4 66 25 38
       1.2111632e-07 1.2111632e-07 4.038349e-05 3.9434773e-05
000080 10 61 12 38 32 49 40 37 32 49 40 37 f9 eb 16 38
       3.489951e-05 1.1461134e-05 1.1461134e-05 3.5982554e-05
000090 f3 c3 0f 38 21 bd b9 37 aa 88 86 37 aa 88 86 37
       3.427635e-05 2.2141789e-05 1.6037684e-05 1.6037684e-05
0000a0 fc bf 6c 34 bc 96 c2 35 14 f2 26 36 c9 97 2b 37
       2.2049056e-07 1.4497996e-06 2.4876836e-06 1.02277345e-05
0000b0 c9 97 2b 37 88 79 f1 32 97 f2 09 36 2a c6 5b 36
       1.02277345e-05 2.8111359e-08 2.0555797e-06 3.274889e-06
0000c0 61 49 b3 37 61 49 b3 37 c3 20 b0 35 43 e4 fd 36
       2.1372633e-05 2.1372633e-05 1.3122557e-06 7.5665607e-06
0000d0 57 56 f4 35 17 30 08 36 17 30 08 36 2e 59 83 37
       1.8204545e-06 2.0293571e-06 2.0293571e-06 1.5657944e-05
0000e0 de 68 49 38 39 18 96 37 6c 3e 8e 37 6c 3e 8e 37
       4.80198e-05 1.7892673e-05 1.6956787e-05 1.6956787e-05
0000f0 99 9a 26 37 cf 32 f5 37 ef b0 24 36 7a 1d 14 37
       9.930366e-06 2.9229936e-05 2.4540893e-06 8.8283505e-06
000100 7a 1d 14 37 14 d0 1d 38 b3 7d 3b 38 de 3a 44 38
       8.8283505e-06 3.7625505e-05 4.470134e-05 4.6784866e-05
000110 7a 35 7b 38 7a 35 7b 38 8c 3d 7e 37 dc f1 22 38
       5.9892867e-05 5.9892867e-05 1.515391e-05 3.884906e-05
000120 ac d2 77 37 14 66 87 38 14 66 87 38 51 7c 01 37
       1.4771398e-05 6.456315e-05 6.456315e-05 7.717944e-06
000130 81 df 7f 37 81 15 65 37 c2 9d dd 36 c2 9d dd 36
       1.5251223e-05 1.365447e-05 6.6046787e-06 6.6046787e-06
000140 90 94 f8 37 39 74 0f 38 04 1a 3b 36 ec e8 11 37
       2.9633084e-05 3.4202098e-05 2.7880315e-06 8.696905e-06
000150 ec e8 11 37 00 00 00 00 00 00 00 00 00 00 00 00
       8.696905e-06 0.0 0.0 0.0
000160 00 00 00 00 00 00 00 00 c7 91 87 35 8f 56 0f 36
       0.0 0.0 1.0100711e-06 2.1359044e-06
000170 ea e5 62 35 64 3e c1 35 64 3e c1 35 68 dc 87 38
       8.452613e-07 1.4397779e-06 1.4397779e-06 6.4783555e-05
000180 f9 51 ac 38 47 8a 2e 38 d1 0a 20 38 d1 0a 20 38
       8.216868e-05 4.1613614e-05 3.8157046e-05 3.8157046e-05
000190 f5 bf 02 38 f2 5d 8d 38 1c cb 9a 37 f4 78 6f 37
       3.117319e-05 6.7409026e-05 1.845281e-05 1.4273672e-05
0001a0 f4 78 6f 37 e4 f7 f7 36 d2 cb 11 38 4e c6 d6 36
       1.4273672e-05 7.390032e-06 3.4760516e-05 6.4007827e-06
0001b0 f9 42 fd 36 f9 42 fd 36 92 bc 80 36 86 9a 04 37
       7.547784e-06 7.547784e-06 3.8366497e-06 7.903791e-06
0001c0 b3 ff 34 36 51 09 c2 36 51 09 c2 36 f4 93 c9 35
       2.6970927e-06 5.782735e-06 5.782735e-06 1.5018727e-06
0001d0 84 b8 9c 36 dd 24 cb 35 32 41 d4 35 32 41 d4 35
       4.6706427e-06 1.5135407e-06 1.5814205e-06 1.5814205e-06
0001e0 4a ab 53 36 6a e4 3f 37 29 51 85 36 6b b1 9a 36
       3.1541153e-06 1.1437669e-05 3.973157e-06 4.610212e-06
0001f0 6b b1 9a 36 41 77 ee 36 85 9b ca 36 86 ee e4 37
       4.610212e-06 7.1068357e-06 6.038174e-06 2.729079e-05
000200 29 92 6a 37 29 92 6a 37 00 00 00 00 00 00 00 00
       1.3981517e-05 1.3981517e-05 0.0 0.0
000210 00 00 00 00 70 d7 12 28 70 d7 12 28 3b c7 e4 37
       0.0 8.151344e-15 8.151344e-15 2.7272492e-05
000220 e1 39 70 39 e8 ce 9c 35 d2 86 7a 38 d2 86 7a 38
       0.00022909745 1.1683123e-06 5.9730206e-05 5.9730206e-05
000230 46 fc ef 36 32 cc 8b 37 98 d4 b0 36 ee 09 b5 36
       7.1521235e-06 1.6665177e-05 5.269958e-06 5.3953763e-06
000240 ee 09 b5 36 87 5f a6 1a 87 5f a6 1a 00 00 00 00
       5.3953763e-06 6.8810324e-23 6.8810324e-23 0.0
000250 9d c0 cc 19 9d c0 cc 19
       2.1170902e-23 2.1170902e-23

exp_avg f4 [30]
000000 b0 30 d7 38 09 b0 14 ba 37 b0 69 ba 04 00 00 00
       0.00010261068 -0.0005671983 -0.00089145027 6e-45
000010 cf ff 3c 39 d8 b3 1f 07 80 8a 39 b8 50 fc ba ba
       0.00018024373 1.2014682e-34 -4.4236425e-05 -0.0014265869
000020 fc fc fc ba 2e f6 38 3b aa f1 05 ba 70 74 19 b9
       -0.001930147 0.0028222906 -0.0005109558 -0.00014634593
000030 56 09 d6 3a ac 91 86 3b a8 51 d2 3a 51 91 87 3a
       0.0016329687 0.004106721 0.0016046064 0.001034299
000040 3a 34 47 39 00 00 00 00 a9 af 58 b9 33 e4 06 3b
       0.00018997575 0.0 -0.00020664804 0.0020582795
000050 06 35 3b ba b5 8c ec ba be 37 32 37 3f 5f 25 ba
       -0.0007141385 -0.0018047305 1.0622605e-05 -0.0006308443
000060 b0 96 46 b8 81 89 71 3a 04 00 00 00 e8 01 01 3b
       -4.7347217e-05 0.000921391 6e-45 0.0019684974
000070 c3 8f 2b 3a 04 00 00 00
       0.00065445545 6e-45

exp_avg_sq f4 [30]
000000 f2 fa 2e 38 4a 5e f3 37 c6 bb 3c 38 86 8a 04 28
       4.1718544e-05 2.9011764e-05 4.499757e-05 7.3575094e-15
000010 95 0c 64 38 40 7e d6 34 e9 aa 2e 38 92 b0 da 38
       5.4371154e-05 3.9952465e-07 4.1644005e-05 0.00010427939
000020 92 f7 54 39 8a b5 68 39 d9 b4 c8 37 15 cf fa 38
       0.00020310123 0.00022192873 2.3926072e-05 0.00011959501
000030 84 b6 3c 38 ef 95 2e 39 7c 24 47 39 c9 f5 db 38
       4.4992674e-05 0.00016649788 0.0001899171 0.00010488515
000040 32 dc 2d 38 00 00 00 00 b1 b2 d1 36 09 0f 56 39
       4.1451487e-05 0.0 6.249488e-06 0.00020414231
000050 7b 96 01 39 50 4e cf 38 90 6e a3 37 7f a5 34 37
       0.00012358457 9.885116e-05 1.9482599e-05 1.0767369e-05
000060 ed f1 f4 37 56 67 56 39 db b5 39 28 00 32 16 3a
       2.9199722e-05 0.00020447126 1.0308997e-14 0.00057294965
000070 c4 b2 34 38 87 5f a6 1a
       4.3081833e-05 6.8810324e-23

exp_avg f4 [3, 30]
000000 00 8f 29 3a 61 04 fb 39 13 8a b7 39 04 00 00 00
       0.0006468147 0.00047877713 0.00035007353 6e-45
000010 42 a4 03 3a 04 00 00 80 f7 d5 81 39 68 a8 1a 39
       0.000502173 -6e-45 0.00024764214 0.0001474932
000020 f5 90 68 3a 70 2f 36 ba c0 dd a8 39 2b df bf 39
       0.0008871698 -0.0006949818 0.00032208674 0.00036596632
000030 05 13 25 39 a0 7b d4 b9 80 be 82 b8 e6 e5 7e 3a
       0.00015742712 -0.000405279 -6.2343664e-05 0.00097235886
000040 e1 e0 e1 b7 00 00 00 00 fa 5d 2d 39 d0 69 a8 38
       -2.6926808e-05 0.0 0.00016533575 8.0305734e-05
000050 a4 26 17 3a dd 24 28 3a e7 3a ce b8 c0 e2 c4 b7
       0.0005765951 0.00064141845 -9.833817e-05 -2.347061e-05
000060 48 b0 22 3a 84 56 f9 b9 04 00 00 80 e0 49 7d b8
       0.00062060775 -0.0004755744 -6e-45 -6.0388702e-05
000070 8a 65 94 3a 00 00 00 00 67 9f 15 ba e1 da 40 bb
       0.0011321765 0.0 -0.0005707652 -0.0029427337
000080 32 04 13 bb 04 00 00 00 65 5e 17 39 a2 0a 00 00
       -0.002243292 6e-45 0.00014435647 3.814e-42
000090 53 33 1d 39 2d 00 d3 b9 0e 26 4b 3a 2a bb 97 3a
       0.00014991807 -0.00040245187 0.0007749506 0.0011576165
0000a0 9c a2 cd ba bf 05 4b ba f2 2a fc b9 a8 32 c9 37
       -0.001568872 -0.00077446917 -0.00048097182 2.3984656e-05
0000b0 ea 70 e5 38 16 38 59 bb 5b 3f bc 27 00 00 00 00
       0.00010940603 -0.0033145002 5.2249172e-15 0.0
0000c0 69 14 5a b9 b5 81 16 ba 85 c8 55 bb d2 21 00 ba
       -0.00020797703 -0.0005741374 -0.003262074 -0.0004887852
0000d0 1f 91 60 b8 0c ce 35 bb 85 91 f6 ba fb 1a d2 ba
       -5.3540916e-05 -0.0027741222 -0.0018811679 -0.0016029769
0000e0 04 00 00 80 55 bb 8c 3a 4a 1c 8a bb 04 00 00 00
       -6e-45 0.0010736982 -0.004214798 6e-45
0000f0 c5 49 22 3a e1 c9 53 ba d8 fd a4 b9 00 00 00 00
       0.0006190802 -0.00080790935 -0.00031469646 0.0
000100 24 87 6f 38 6f a4 49 87 50 1a 05 38 40 5c d5 37
       5.71079e-05 -1.5169882e-34 3.1734176e-05 2.5434536e-05
000110 80 54 8f b9 6a 9d 75 3a cc 39 32 3a be 16 e6 39
       -0.00027338043 0.0009369465 0.00067987735 0.00043885963
000120 e8 d5 c8 37 a2 1f 46 ba 60 6e 19 ba 6e 1d db ba
       2.3941466e-05 -0.0007557814 -0.0005852934 -0.0016717145
000130 66 97 f8 38 00 00 00 00 83 af 91 38 10 6f bc ba
       0.00011853762 0.0 6.9468304e-05 -0.0014376361
000140 71 e7 fe ba 19 8a a9 3a f0 af 2b b2 7f 3f 61 ba
       -0.0019447637 0.0012934833 -9.993514e-09 -0.00085925305
000150 6e 05 e5 39 28 9d ab ba 04 00 00 80 e8 42 fb 39
       0.0004368233 -0.0013093101 -6e-45 0.000479243
000160 5b 9b b5 ba 00 00 00 00
       -0.0013855504 0.0

exp_avg_sq f4 [3, 30]
000000 83 f2 97 37 2f 11 34 38 76 3a ca 37 1c a9 41 22
       1.8113531e-05 4.2931348e-05 2.41075e-05 2.6245903e-18
000010 14 3b b4 36 ab 6a 08 33 88 38 47 36 c7 ee 1c 38
       5.3712956e-06 3.176198e-08 2.9686216e-06 3.7415677e-05
000020 7e 73 95 37 6f 46 11 38 86 73 4b 38 7c 02 3f 38
       1.7815964e-05 3.463629e-05 4.850656e-05 4.5540262e-05
000030 4e 19 6c 36 88 71 46 38 7a 3c 3a 37 09 82 71 39
       3.518147e-06 4.7312613e-05 1.1100545e-05 0.00023031993
000040 12 85 39 34 00 00 00 00 53 6a 89 36 47 6c e3 38
       1.7277878e-07 0.0 4.095296e-06 0.00010844372
000050 fe e4 32 39 5e 45 1c 38 1c af b4 36 0c 88 b0 38
       0.00017060709 3.72579e-05 5.3848034e-06 8.417675e-05
000060 53 6c ff 37 c1 2a 98 38 ba fc 5e 25 74 44 de 38
       3.0448811e-05 7.255888e-05 1.9341058e-16 0.00010598535
000070 4d 97 25 39 00 00 00 00 1a 8c 29 38 17 7b f7 37
       0.0001579199 0.0 4.042322e-05 2.9502013e-05
000080 45 5c e3 37 44 f5 74 25 c6 d1 85 35 42 53 13 33
       2.7103475e-05 2.1246726e-16 9.970324e-07 3.4301827e-08
000090 ac e8 29 35 55 fc 49 38 9b 4d db 37 76 99 b8 38
       6.329599e-07 4.8157137e-05 2.6142972e-05 8.802388e-05
0000a0 4d cf ca 38 7f 51 ac 38 ce 32 4a 36 98 96 20 37
       9.6707234e-05 8.216779e-05 3.0129918e-06 9.571806e-06
0000b0 4e e7 ea 35 69 3c 1d 39 6c a8 28 34 00 00 00 00
       1.7501677e-06 0.00014995191 1.5707491e-07 0.0
0000c0 7a 99 0c 37 0b 53 fc 37 e4 9b ce 38 2b 3c bb 38
       8.380384e-06 3.007941e-05 9.851882e-05 8.928062e-05
0000d0 e3 f4 09 37 e4 38 2b 38 5d 04 b1 38 aa 87 1c 38
       8.2228535e-06 4.082256e-05 8.4408304e-05 3.7319645e-05
0000e0 8e 92 3d 26 55 75 a3 38 f5 b8 a8 38 83 4b fe 1d
       6.5771166e-16 7.7943005e-05 8.045315e-05 6.7311317e-21
0000f0 46 49 29 38 e0 8e 0d 39 01 96 9c 38 00 00 00 00
       4.036098e-05 0.00013500033 7.4666e-05 0.0
000100 e0 ba 19 37 d5 74 54 33 a2 46 8a 36 d9 59 46 38
       9.163021e-06 4.9466355e-08 4.1209432e-06 4.7290556e-05
000110 34 21 55 38 31 bc b0 38 73 3b 38 39 13 b0 8d 38
       5.081408e-05 8.4273874e-05 0.00017569754 6.7562e-05
000120 28 3a ad 37 c1 71 c0 37 da 90 fd 36 43 cd c9 39
       2.0650288e-05 2.2941154e-05 7.5568505e-06 0.0003849064
000130 8d c7 97 36 00 00 00 00 38 e5 26 37 ac 3a 24 39
       4.5233814e-06 0.0 9.94774e-06 0.00015662116
000140 e7 b8 88 39 71 5f ca 38 75 81 b8 37 3c 3e 1f 39
       0.00026077704 9.649888e-05 2.1994792e-05 0.00015186606
000150 0c e3 54 38 20 7b 91 38 02 62 92 26 a1 39 27 39
       5.0756193e-05 6.9370726e-05 1.015735e-15 0.0001594783
000160 fe 05 d9 39 00 00 00 00
       0.0004139393 0.0

exp_avg f4 [3]
000000 0e a7 a9 3a 0c a4 13 bb cc d6 8b 3a
       0.0012943463 -0.00225282 0.0010668873

exp_avg_sq f4 [3]
000000 3d b5 2d 39 b5 6d 82 39 dd 64 b2 39
       0.00016566082 0.0002487727 0.00034025955
